models/models/2024-11-25_12-34-57.pt (torch, 5344 bytes, 2 tensors)

weights f4 [53, 3, 3]
000000 79 58 b4 3d df e0 bb 3d 5c 82 1c 3d bb 17 c4 3d
       0.08805937 0.0917375 0.038210258 0.09574839
000010 41 0e 22 3d 3c 9f 75 3d f7 c8 d1 3c ea 5d a2 3d
       0.039564375 0.05996631 0.025608523 0.07928069
000020 51 39 c0 3d c6 4b 5b 3c a1 50 bf 3d 6d b1 72 3d
       0.09385932 0.013384765 0.093415506 0.059251238
000030 43 c6 b1 3d 52 59 6a 3d b0 a1 97 3d 97 8e 2f 3d
       0.086803935 0.05721409 0.07403886 0.042860594
000040 e3 e3 b3 3d 11 da 69 3d 39 45 d8 3c dc 1b 7f 3d
       0.087837 0.05709273 0.026400195 0.06228243
000050 66 e6 da 3c cf 3e 34 3d 2b 8b fc 3c a2 0f aa 3d
       0.02672119 0.04400521 0.03082808 0.08303763
000060 36 e6 2b 3c 50 2e dc 3c 17 70 12 3d 64 9b a1 3c
       0.010491898 0.026877552 0.03575143 0.019727416
000070 8a b2 5f 3d ec 73 0e 3a 0b 6d c2 3d 21 3f fd 3b
       0.054613627 0.0005434144 0.094934545 0.007728473
000080 6d 70 b4 3d 34 25 6e 3d 3e 2b 0b 3d b5 f9 a4 3d
       0.08810506 0.05814095 0.033976786 0.0805544
000090 46 ab 6b 3d 63 66 c0 3d a2 aa 62 3d 73 07 0c 3d
       0.057536386 0.09394529 0.05533851 0.03418679
0000a0 9b 1d 82 3d ff aa 14 3d 5c 3d 91 3d 5c 3a c2 3d
       0.06353303 0.036295887 0.070917815 0.094837874
0000b0 d4 44 a1 3d b9 07 e7 3c 7d 4f 9f 3d 4c ae 70 3d
       0.07874456 0.028201925 0.07778833 0.058759972
0000c0 8d 2d 99 3d 32 12 a1 3c 96 b5 51 b9 7a 96 f6 3c
       0.07479391 0.019661997 -0.00019999439 0.03010105
0000d0 e2 f9 40 3c 81 f6 b9 3d c6 a4 83 3d 73 3d 91 3d
       0.011778327 0.0908022 0.064279124 0.07091799
0000e0 46 b3 86 3d b7 4d 48 3d 26 5b b6 3d 9c ff 66 3c
       0.065771624 0.04890224 0.08904104 0.014099028
0000f0 a7 32 5a 3d ab 86 84 3c 97 c7 85 3d 92 47 05 3d
       0.053270962 0.016177496 0.06532209 0.032538958
000100 aa a5 85 3d b9 e6 1f 3d fd 07 bb 3d 62 44 a5 3c
       0.065257385 0.039038394 0.09132383 0.020174209
000110 f8 2a a3 3c 71 bf 9d 3c 64 ed c1 3d 04 88 87 3d
       0.01991795 0.019256325 0.09469107 0.0661774
000120 94 93 c8 3d 97 88 0b 3c 46 82 34 3a a4 c3 30 3c
       0.09793773 0.008516452 0.00068858673 0.010788832
000130 08 c8 83 3c 53 ea 8e 3d 89 bf 89 3d cd 34 c4 3d
       0.016086593 0.069782875 0.067259856 0.095803834
000140 d3 df c6 3c 77 0e 82 3c 29 89 9d 3d f6 32 ec 3c
       0.02427665 0.015876038 0.07692177 0.028832894
000150 49 a5 a4 3d 0d e1 1b 3d d5 b4 a0 3d ab de 33 3c
       0.08039338 0.038056422 0.07846991 0.010978381
000160 1a 92 bf 3c aa 5c 84 3d 03 aa 76 3d 98 ff 17 3d
       0.023385096 0.06462987 0.06022073 0.037108988
000170 60 3c a2 3d af b5 ab 3d 81 fd 62 3c 06 d9 be 3c
       0.07921672 0.08384263 0.013854385 0.023296844
000180 6e 5f c4 3d 96 f6 05 3d ce 95 05 3d 3b 14 bf 3a
       0.09588514 0.032705866 0.032613568 0.0014578173
000190 ec 56 b2 3c ec 5a 7f 3d b0 1f 33 3d 98 6a 6c 3c
       0.021769963 0.06234257 0.04373139 0.014429711
0001a0 e2 01 52 3d fe 4b 7e 3c 0b dc e6 3b 54 7c bb 3c
       0.051271327 0.015521048 0.007045274 0.022886433
0001b0 d2 0e d2 3b 29 b6 93 3c 78 e9 cc 3d 4f e6 6f 3d
       0.006410458 0.018031197 0.10005468 0.05856925
0001c0 0b 51 86 3d c4 b4 47 3b 3f 59 8b 3c f0 cd 08 3d
       0.065584265 0.0030472735 0.01701033 0.033399522
0001d0 32 7a 6d 3d b9 5f bf 3b 88 a5 e5 3c 02 0c a1 3c
       0.057977863 0.0058402685 0.028033033 0.019659046
0001e0 57 71 4b 3d 2a 3c 02 3d f0 a4 3f 3d f5 4d 84 3c
       0.049668636 0.03179566 0.046788156 0.016150454
0001f0 e8 d5 7b 3c 61 81 ad 3c 7e b6 08 3d e8 56 2c 3c
       0.015370823 0.021179857 0.033377163 0.010518767
000200 be b9 bb 3d e4 c2 24 3d 70 a4 bd 3d 9a 9b 84 3d
       0.09166287 0.040224925 0.092598796 0.06474991
000210 65 c6 f8 3b d9 99 ab 3d 45 33 13 3d ee ca ff 3c
       0.00759201 0.083789535 0.035937566 0.031224694
000220 9f 8e 08 3c 1b b2 b1 39 6d e3 83 3d 5a 41 1d 3d
       0.008334785 0.0003389277 0.064398624 0.038392402
000230 82 af 8e 3d 07 a7 10 3c f5 d6 b2 3d 0a 53 61 3c
       0.06967069 0.008828885 0.08732406 0.013752708
000240 64 a8 2c 3d cb 10 77 3d 8d 67 9b 3d 18 22 b8 3d
       0.042152777 0.06031875 0.0758811 0.08990878
000250 ff b3 c1 3d a3 5a 30 3c 16 8b 80 3d 2f 8f e9 3c
       0.0945816 0.010763797 0.062765285 0.028510658
000260 51 e6 36 3d b2 72 50 3c cb 74 c3 3d 3b 61 5a 3c
       0.04465324 0.012722658 0.09543761 0.013328846
000270 e6 be 9c 3d d4 9d 8a 3d cc 9c 89 3d 4b 53 ba 3c
       0.076535985 0.067683846 0.0671936 0.022744795
000280 80 1d c2 3d 39 8a 77 3d 98 81 67 3d af 3c eb 3a
       0.09478283 0.060434554 0.056520075 0.0017947162
000290 d1 ad 91 3d 4b d7 2d 3d 44 9f d8 3c a8 ce be 3d
       0.07113231 0.042441647 0.026443131 0.0931676
0002a0 cd e4 7a 3d f1 f7 b3 3c d3 0e ca 3c 8c 0d 44 3d
       0.061253358 0.021968814 0.024665272 0.04786448
0002b0 12 5c a0 3d db 76 17 3d dd 43 b2 3c 19 75 04 3d
       0.07830061 0.036978584 0.021760875 0.032338236
0002c0 78 11 54 3c 3e 4e 8d 3d 8c 05 b6 3d 4c 46 4d 3b
       0.012943618 0.06899689 0.08887777 0.0031322418
0002d0 5b 72 7c 3d e6 e3 99 3d 2a 34 72 3d 42 14 04 3d
       0.061632495 0.07514171 0.05913178 0.03224588
0002e0 c4 7b 9b 3d d1 6a 9d 3d 99 b1 8c 3d d3 2f 28 3d
       0.07591966 0.07686389 0.068698116 0.041061234
0002f0 48 e8 16 3d 6d c8 5d 3d 5c d0 27 3d cb 12 14 3d
       0.036842614 0.05414622 0.04097019 0.036150735
000300 82 f5 a7 3d f8 49 be 3d 37 31 39 3d 4b 9c 20 3d
       0.08201124 0.09291452 0.04521295 0.039211553
000310 2c 4b 50 3d 31 db 40 3d 05 b3 7d 3d e6 f7 83 3d
       0.05085294 0.047084037 0.061938304 0.06443767
000320 64 68 99 3b 79 82 00 3d 64 d6 bb 3d 18 66 8d 3d
       0.004681634 0.03137443 0.09171751 0.069042385
000330 9a 67 44 3d da 4e 87 3c 09 e6 a0 3c 2e c6 ae 3b
       0.047950365 0.016517092 0.01964094 0.0053336835
000340 55 f2 09 3d 51 77 89 3d 97 a1 a7 3d ce ce 94 3d
       0.03367837 0.06712211 0.08185118 0.07266007
000350 3e 17 be 3b de 12 a6 3c 1a c8 2f 3d 42 4e c8 3d
       0.0058011105 0.020272668 0.04291544 0.097805515
000360 ed d5 6b 3d a3 b1 16 3d 99 71 91 3d e8 23 02 3d
       0.057577062 0.0367905 0.07101745 0.031772524
000370 de 0d 92 3c c5 21 b1 3d c2 d5 df 3c 13 b6 22 3d
       0.017828878 0.08649019 0.027323607 0.03972442
000380 b0 58 eb 39 b7 c0 aa 3d e9 ed b2 3d f1 2d 8c 3d
       0.0004488877 0.08337539 0.08736784 0.068447
000390 3c 82 77 3c 33 ac 85 39 69 cc 19 3c 35 af b1 3d
       0.015106734 0.00025496035 0.009387114 0.08675996
0003a0 d4 49 96 3d 7a 4a bc 3d c2 c6 9b 3d 6a 37 80 3d
       0.073383 0.09193893 0.076062694 0.062605694
0003b0 f7 9d 4a 3d e7 46 48 3c 43 21 ef 3b e7 96 57 3b
       0.049467053 0.012223936 0.0072976663 0.0032896341
0003c0 37 0c 90 3d 45 bb d6 3c e1 18 26 3d b2 ee ab 3c
       0.0703358 0.026212344 0.04055107 0.020987842
0003d0 62 25 27 3d ca 8a 6c 3c 8e 50 90 3c 8b 27 8b 3d
       0.040807135 0.014437387 0.017616536 0.067946516
0003e0 bd 49 10 3d b8 54 a5 3d 70 52 0b 3d ec 6c 59 3c
       0.035226572 0.080727994 0.034014165 0.013270598
0003f0 15 63 29 3d a1 bd d1 3c 58 bb 0d 3d d3 86 24 3b
       0.041354258 0.025603117 0.034602493 0.0025104776

bias f4 [53, 3, 3]
000000 ca 2c 85 3c 07 03 10 3d 3d ae 77 3d 7c 1d 9b 3d
       0.016256709 0.035159137 0.0604689 0.07573983
000010 d1 27 00 3d 84 f7 a8 3c 15 6d 68 3d 90 31 a9 3c
       0.031287972 0.020625837 0.056744654 0.020653516
000020 33 99 8e 3c 55 ce 9b 3d c8 ef 29 3d ff e8 c3 3d
       0.017407035 0.07607714 0.04148844 0.09565925
000030 2c 15 ca 3d 14 1e 86 3d d0 c3 89 3d 3b f1 7b 3d
       0.098673195 0.06548706 0.067268014 0.061509352
000040 46 40 41 3d 77 ea 3c 3d 69 bd 4e 3d ce 3b 8c 3d
       0.047180437 0.04612204 0.050473604 0.06847344
000050 16 00 c5 3d 1f 70 17 3d dc d3 f6 3c 49 e8 1a 3d
       0.09619157 0.03697216 0.03013032 0.03781918
000060 b5 41 d2 3c 64 b3 70 3d d2 8e b2 3d 16 22 b6 3d
       0.025666097 0.05876483 0.08718647 0.0889322
000070 bf 2c 96 3d e5 19 55 3c 63 d9 ba 3c d5 ca 1f 3d
       0.073327534 0.013006662 0.022808736 0.039011795
000080 a3 74 25 3d a4 e4 5d 3d 61 f5 90 3b 3a 65 86 3d
       0.040394437 0.054173127 0.0044237827 0.06562276
000090 a3 c3 3f 3c 65 f1 94 3c 4e 95 01 3c 94 87 bf 3d
       0.011704358 0.018181512 0.007909132 0.09352031
0000a0 78 59 4b 3b 79 81 b3 3d 33 80 45 3d dc 41 39 3d
       0.003102867 0.08764929 0.048217963 0.045228824
0000b0 55 4a a6 3d e1 25 3a 3d ce c8 a6 3d 7e d1 b0 3d
       0.081196465 0.04544628 0.08143769 0.086337075
0000c0 c9 ec c0 3b 49 0b 8e 3d f6 7d 70 3d f8 ea 75 3d
       0.005887602 0.06935746 0.058713876 0.060038537
0000d0 22 a9 6b 3d 27 ea 80 3d 27 3e d4 3c ad e3 33 3d
       0.057534344 0.06294661 0.025908543 0.0439183
0000e0 2e 94 c7 3d 66 7e aa 3d 31 7f 4b 3d bf 26 1b 3b
       0.0974506 0.0832489 0.049681846 0.0023674218
0000f0 4a fe 55 3d df af 89 3c e2 ba b9 3d 40 d2 98 3c
       0.052244462 0.016807495 0.09068848 0.018654943
000100 f4 6a 3e 3d 04 6c 1b 3d c6 e8 6e 3d e5 be c4 3d
       0.046488717 0.03794481 0.05832746 0.09606723
000110 e8 17 5e 3d 85 d3 9f 3d 82 d0 b5 3d 0b 2c b7 3d
       0.054222018 0.07804016 0.0887766 0.089439474
000120 d3 ab 06 3d c3 70 1f 3d 3f 0e 98 3d 24 7b 16 3d
       0.032878708 0.038925897 0.07424592 0.03673853
000130 4c c3 95 3d b0 8f 21 3d 4a 39 7e 3c a7 e4 96 3d
       0.073126405 0.03944367 0.015516588 0.07367831
000140 14 b6 69 3d 3d 0e 92 3d 80 4a ce 3d 5f 57 aa 3d
       0.05705841 0.07131622 0.100728035 0.08317446
000150 c0 d6 c7 3d 03 a5 57 3d 88 3e eb 3b ae 3f 6c 3c
       0.09757757 0.0526476 0.007179085 0.014419479
000160 48 f5 90 3c e7 1f b2 3b b8 cf c7 3c 69 b6 81 3b
       0.017695084 0.005435932 0.02439104 0.0039585126
000170 30 fa 59 3b f8 36 9d 3c 1d a5 53 3a 8c 8e 96 3c
       0.0033260696 0.01919125 0.0008073615 0.018378519
000180 df 78 8e 3d a9 1d bb 3d 7e ba 11 3d 92 96 0f 3d
       0.06956648 0.091365166 0.035578243 0.035055704
000190 4e 95 a4 3d 26 0a cc 3c 63 6c da 3c 38 00 a6 3d
       0.0803629 0.024907183 0.026663011 0.081055105
0001a0 eb 92 dd 3b 5a 64 66 3d de 21 c0 3d d3 79 70 3d
       0.0067618988 0.056248046 0.0938146 0.05870993
0001b0 df 24 83 3d cf fd a2 3c 29 be 4b 3d 79 ab 54 3d
       0.06403517 0.019896416 0.049741898 0.05192134
0001c0 ba 74 7f 3d 5e 8e 8c 3d 63 da bd 3d 00 13 41 3c
       0.06236718 0.06863092 0.092701696 0.011784315
0001d0 49 e3 4f 3d 58 eb ce 3c 51 ee 25 3c 19 59 3d 3d
       0.050753865 0.025258705 0.01012762 0.04622755
0001e0 c3 98 b3 3b e2 b0 b4 3d 0b a5 63 3d fa eb bf 3c
       0.005480857 0.088228 0.05557732 0.023427952
0001f0 49 61 9b 3d 1f b0 4b 3b f1 0d f8 3c dc ff 24 3d
       0.07586915 0.0031080318 0.030280085 0.04028307
000200 97 b3 e9 3b fb b2 93 3c a8 eb 28 3d a1 9e b3 3d
       0.0071320045 0.01802968 0.041240364 0.087704904
000210 f7 66 c8 3d 29 6c a7 3d 7c b3 a1 3c e0 10 91 3c
       0.09785264 0.08174927 0.019738905 0.017708242
000220 af d3 bd 3d 76 74 8b 3d ce b9 53 3d 05 3f 66 3d
       0.09268891 0.068093225 0.05169087 0.056212444
000230 35 25 26 3c 67 36 07 3d 97 9b cd 3d 70 83 1a 3d
       0.010140707 0.033010866 0.10039442 0.037723005
000240 fe 38 42 3d ed d5 0f 3c 28 f4 b3 3c 53 b5 49 3d
       0.047417633 0.008779031 0.021967009 0.04924519
000250 8f 8b 95 3c c2 97 34 3d 99 61 90 3d 80 cf 40 3a
       0.018255023 0.04409004 0.07049865 0.00073551387
000260 74 1e 85 3d 66 ba 8b 3c a8 c2 cf 3c c0 04 8e 3d
       0.06499949 0.017056655 0.025361374 0.069345
000270 87 de b7 3d cf b0 14 3d 37 45 f1 3c 45 c6 a7 3b
       0.089779906 0.03630143 0.02945195 0.005120071
000280 9d 7d c2 3c 8d 1b d7 3b 46 37 1e 3d ab 87 74 3d
       0.023741538 0.0065645636 0.03862693 0.059699696
000290 40 d5 61 3b 37 96 c0 3d 90 6c a4 3d d2 c9 c0 3a
       0.0034459382 0.09403651 0.08028519 0.0014708585
0002a0 9c 12 d8 3c 71 11 86 3d 73 e2 23 3d 93 e8 37 3d
       0.026376061 0.065462954 0.04001088 0.044899534
0002b0 51 fa dd 3c 32 4b b9 3d 7f 04 b6 3c 2c ea ba 3d
       0.0270969 0.090475455 0.02221894 0.09126696
0002c0 ce c7 5a 3d 85 0f 77 3d 50 f4 b6 3d c5 f4 2b 3d
       0.053413205 0.060317535 0.08933318 0.041981477
0002d0 a1 5e b2 3c 79 9f 29 3d 30 fa b9 3d 2f 4f 58 3c
       0.021773638 0.04141185 0.090809226 0.013202473
0002e0 7d c3 76 3d 57 2a b4 3a 11 af 9c 3d fa f6 89 3d
       0.060245026 0.0013745528 0.07650579 0.0673656
0002f0 2a c7 56 3d 7a 40 93 3d 98 67 4c 3d 10 fa 9f 3d
       0.05243603 0.07190032 0.049903482 0.078113675
000300 ea e3 2f 3c 3a 5a 2f 3d d3 77 94 3d 5a 3f cd 3d
       0.010735491 0.042810656 0.07249417 0.10021849
000310 1f 5d 9a 3d 14 45 66 3c 78 b5 b5 3d c5 97 20 3d
       0.07537293 0.014054555 0.08872503 0.03920724
000320 cf 16 22 3d 09 7a 9e 3b 0e d8 2b 3d 96 6c af 3d
       0.039572533 0.004836325 0.041954093 0.08565633
000330 30 2e 6b 3d 90 f7 97 3c fb cd 86 3d 3b 98 0c 3d
       0.057417095 0.018550664 0.065822564 0.034324866
000340 bc 8c c3 3d 22 80 e2 3b f0 c5 0c 3d 93 3a 7e 3a
       0.09548327 0.0069122473 0.034368455 0.00096980593
000350 bd 98 f9 3c ca 28 87 3d 1d 8e c9 3d ea 15 70 3d
       0.03046834 0.06599577 0.09841559 0.05861465
000360 bb 9f cb 3d d3 4a 74 3d 80 54 a2 3d 74 20 b9 3d
       0.099425755 0.05964167 0.07926273 0.09039393
000370 71 11 be 3d 14 cb b6 3c 36 e8 c4 3d 4b 0d a4 3d
       0.092806704 0.022313632 0.09614603 0.08010348
000380 a9 8d db 3c 4e 91 d7 3c 8a 5e b4 3b 26 78 80 3d
       0.026800947 0.026314404 0.005504434 0.062729165
000390 92 ec 1b 3c 63 4c 91 3d df c1 86 3d 0f 91 d9 3b
       0.009516852 0.07094648 0.06579947 0.006639607
0003a0 3c ee 80 3d 3c 36 3c 3d c1 4e 95 3d 39 fd a1 3d
       0.062954396 0.04595016 0.07290412 0.079096265
0003b0 1e 6c bd 39 d4 c3 c4 3d 65 78 bc 3d 44 81 8f 3d
       0.00036129443 0.09607664 0.09202651 0.07007077
0003c0 74 bd 92 3b 4f cb 07 3d c3 3d 12 3d 19 10 18 3d
       0.004478151 0.033152875 0.03570343 0.037124727
0003d0 f4 fd 9f 3d 89 87 8b 3d 5f 08 b8 3d 8e 2c f1 3c
       0.078121096 0.06812961 0.08985972 0.02944019
0003e0 51 c6 88 3d 62 c5 8a 3d f6 a7 0a 3c 75 af be 3a
       0.06678451 0.06775929 0.008462897 0.001454814
0003f0 c0 23 c4 3c 1e cb ab 3d a6 cb 34 3b 3e bb cf 3b
       0.023942828 0.08388351 0.0027587204 0.0063394597
